Model: "model"
_________________________________________________________________
 Layer (type)                Output Shape              Param #   
=================================================================
 input_1 (InputLayer)        [(None, 20, 200, 200, 3   0         
                             )]                                  
                                                                 
 time_distributed (TimeDist  (None, 20, 1)             27141921  
 ributed)                                                        
                                                                 
 time_distributed_1 (TimeDi  (None, 20, 1)             0         
 stributed)                                                      
                                                                 
 time_distributed_2 (TimeDi  (None, 20, 1)             0         
 stributed)                                                      
                                                                 
 lstm (LSTM)                 (None, 20, 256)           264192    
                                                                 
 batch_normalization (Batch  (None, 20, 256)           1024      
 Normalization)                                                  
                                                                 
 lstm_1 (LSTM)               (None, 128)               197120    
                                                                 
 dense (Dense)               (None, 512)               66048     
                                                                 
 batch_normalization_1 (Bat  (None, 512)               2048      
 chNormalization)                                                
                                                                 
 dropout_1 (Dropout)         (None, 512)               0         
                                                                 
 dense_1 (Dense)             (None, 1024)              525312    
                                                                 
 batch_normalization_2 (Bat  (None, 1024)              4096      
 chNormalization)                                                
                                                                 
 dropout_2 (Dropout)         (None, 1024)              0         
                                                                 
 dense_2 (Dense)             (None, 1)                 1025      
                                                                 
=================================================================
Total params: 28202786 (107.59 MB)
Trainable params: 1057281 (4.03 MB)
Non-trainable params: 27145505 (103.55 MB)
_________________________________________________________________
RNN using LSTM, pretrained CNN, dense layers, and overfitting prevention techniques
…
